{"format": "torch", "nodes": [{"name": "ImageModel", "id": 139852490928016, "class_name": "ImageModel(\n  (blocks): ModuleList(\n    (0): BasicConvBlock(\n      (conv): Conv2d(1, 64, kernel_size=(8, 8), stride=(1, 1), padding=(2, 2))\n      (relu): LeakyReLU(negative_slope=0.2)\n      (batchnorm): BatchNorm2d(64, eps=1e-05, momentum=0.1, affine=True, track_running_stats=True)\n      (pool): MaxPool2d(kernel_size=(2, 2), stride=(2, 2), padding=0, dilation=1, ceil_mode=False)\n    )\n    (1): BasicConvBlock(\n      (conv): Conv2d(64, 12, kernel_size=(3, 3), stride=(1, 1))\n      (relu): LeakyReLU(negative_slope=0.1)\n      (batchnorm): BatchNorm2d(12, eps=1e-05, momentum=0.1, affine=True, track_running_stats=True)\n      (pool): MaxPool2d(kernel_size=(2, 2), stride=(2, 2), padding=0, dilation=1, ceil_mode=False)\n    )\n    (2): BasicConvBlock(\n      (conv): Conv2d(12, 10, kernel_size=(3, 3), stride=(1, 1))\n      (relu): LeakyReLU(negative_slope=0.1)\n      (batchnorm): BatchNorm2d(10, eps=1e-05, momentum=0.1, affine=True, track_running_stats=True)\n      (pool): MaxPool2d(kernel_size=(2, 2), stride=(2, 2), padding=0, dilation=1, ceil_mode=False)\n    )\n    (3): BasicConvBlock(\n      (conv): Conv2d(10, 5, kernel_size=(3, 3), stride=(1, 1))\n      (relu): LeakyReLU(negative_slope=0.1)\n      (batchnorm): BatchNorm2d(5, eps=1e-05, momentum=0.1, affine=True, track_running_stats=True)\n      (pool): MaxPool2d(kernel_size=(2, 2), stride=(2, 2), padding=0, dilation=1, ceil_mode=False)\n    )\n    (4): BasicConvBlock(\n      (conv): Conv2d(5, 1, kernel_size=(2, 2), stride=(1, 1))\n      (relu): LeakyReLU(negative_slope=0.1)\n      (batchnorm): BatchNorm2d(1, eps=1e-05, momentum=0.1, affine=True, track_running_stats=True)\n      (pool): MaxPool2d(kernel_size=(2, 2), stride=(2, 2), padding=0, dilation=1, ceil_mode=False)\n    )\n  )\n  (Z): Linear(in_features=36, out_features=36, bias=True)\n)", "parameters": [["blocks.0.conv.weight", [64, 1, 8, 8]], ["blocks.0.conv.bias", [64]], ["blocks.0.batchnorm.weight", [64]], ["blocks.0.batchnorm.bias", [64]], ["blocks.1.conv.weight", [12, 64, 3, 3]], ["blocks.1.conv.bias", [12]], ["blocks.1.batchnorm.weight", [12]], ["blocks.1.batchnorm.bias", [12]], ["blocks.2.conv.weight", [10, 12, 3, 3]], ["block
…
.batchnorm.bias", [10]], ["blocks.3.conv.weight", [5, 10, 3, 3]], ["blocks.3.conv.bias", [5]], ["blocks.3.batchnorm.weight", [5]], ["blocks.3.batchnorm.bias", [5]], ["blocks.4.conv.weight", [1, 5, 2, 2]], ["blocks.4.conv.bias", [1]], ["blocks.4.batchnorm.weight", [1]], ["blocks.4.batchnorm.bias", [1]], ["Z.weight", [36, 36]], ["Z.bias", [36]]], "output_shape": [[25, 36]], "num_parameters": [4096, 64, 64, 64, 6912, 12, 12, 12, 1080, 10, 10, 10, 450, 5, 5, 5, 20, 1, 1, 1, 1296, 36]}, {"name": "FeatureModel", "id": 139852490926736, "class_name": "FeatureModel(\n  (dnn_layers): ModuleList(\n    (0): Linear(in_features=9, out_features=128, bias=True)\n    (1): ReLU()\n    (2): BatchNorm1d(128, eps=1e-05, momentum=0.1, affine=True, track_running_stats=True)\n    (3): Linear(in_features=128, out_features=128, bias=True)\n    (4): ReLU()\n    (5): BatchNorm1d(128, eps=1e-05, momentum=0.1, affine=True, track_running_stats=True)\n  )\n  (output_layer): Linear(in_features=128, out_features=36, bias=True)\n)", "parameters": [["dnn_layers.0.weight", [128, 9]], ["dnn_layers.0.bias", [128]], ["dnn_layers.2.weight", [128]], ["dnn_layers.2.bias", [128]], ["dnn_layers.3.weight", [128, 128]], ["dnn_layers.3.bias", [128]], ["dnn_layers.5.weight", [128]], ["dnn_layers.5.bias", [128]], ["output_layer.weight", [36, 128]], ["output_layer.bias", [36]]], "output_shape
…
