{"format": "torch", "nodes": [{"name": "ImageModel", "id": 140706350825872, "class_name": "ImageModel(\n  (blocks): ModuleList(\n    (0): BasicConvBlock(\n      (conv): Conv2d(1, 20, kernel_size=(3, 3), stride=(1, 1), padding=(2, 2))\n      (relu): LeakyReLU(negative_slope=0.2)\n      (batchnorm): BatchNorm2d(20, eps=1e-05, momentum=0.1, affine=True, track_running_stats=True)\n      (pool): MaxPool2d(kernel_size=(2, 2), stride=(2, 2), padding=0, dilation=1, ceil_mode=False)\n    )\n    (1): BasicConvBlock(\n      (conv): Conv2d(20, 25, kernel_size=(3, 3), stride=(1, 1))\n      (relu): LeakyReLU(negative_slope=0.1)\n      (batchnorm): BatchNorm2d(25, eps=1e-05, momentum=0.1, affine=True, track_running_stats=True)\n      (pool): MaxPool2d(kernel_size=(2, 2), stride=(2, 2), padding=0, dilation=1, ceil_mode=False)\n    )\n    (2): BasicConvBlock(\n      (conv): Conv2d(25, 10, kernel_size=(3, 3), stride=(1, 1))\n      (relu): LeakyReLU(negative_slope=0.1)\n      (batchnorm): BatchNorm2d(10, eps=1e-05, momentum=0.1, affine=True, track_running_stats=True)\n      (pool): MaxPool2d(kernel_size=(2, 2), stride=(2, 2), padding=0, dilation=1, ceil_mode=False)\n    )\n    (3): BasicConvBlock(\n      (conv): Conv2d(10, 5, kernel_size=(3, 3), stride=(1, 1))\n      (relu): LeakyReLU(negative_slope=0.1)\n      (batchnorm): BatchNorm2d(5, eps=1e-05, momentum=0.1, affine=True, track_running_stats=True)\n      (pool): MaxPool2d(kernel_size=(2, 2), stride=(2, 2), padding=0, dilation=1, ceil_mode=False)\n    )\n    (4): BasicConvBlock(\n      (conv): Conv2d(5, 5, kernel_size=(2, 2), stride=(1, 1))\n      (relu): LeakyReLU(negative_slope=0.1)\n      (batchnorm): BatchNorm2d(5, eps=1e-05, momentum=0.1, affine=True, track_running_stats=True)\n      (pool): MaxPool2d(kernel_size=(2, 2), stride=(2, 2), padding=0, dilation=1, ceil_mode=False)\n    )\n    (5): BasicConvBlock(\n      (conv): Conv2d(5, 1, kernel_size=(2, 2), stride=(1, 1))\n      (relu): LeakyReLU(negative_slope=0.1)\n      (batchnorm): BatchNorm2d(1, eps=1e-05, momentum=0.1, affine=True, track_running_stats=True)\n      (pool): MaxPool2d(kernel_size=(2, 2), stride=(2, 2), padding=0, dilation=1, ceil_mode=False)\n    )\n  )\n  (Z): Linear(in_features=4, out_features=4, bias=True)\n)", "parameters": [["blocks.0.conv.weight", [20, 1, 3, 3]], ["blocks.0.conv.bias", [20]], ["blocks.0.batchnorm.weight", [20]], ["blocks.0.batchnorm.bias", [20]], ["blocks.1.conv.weight", [25, 20, 3, 3]], ["blocks.1.conv.bias", [25]], ["blocks.1.batchnorm.weight", [25]], ["blocks.1.batchnorm.bias", [25]], ["blocks.2.conv.weight", [10, 25, 3, 3]], ["blocks.
…
chnorm.bias", [5]], ["blocks.4.conv.weight", [5, 5, 2, 2]], ["blocks.4.conv.bias", [5]], ["blocks.4.batchnorm.weight", [5]], ["blocks.4.batchnorm.bias", [5]], ["blocks.5.conv.weight", [1, 5, 2, 2]], ["blocks.5.conv.bias", [1]], ["blocks.5.batchnorm.weight", [1]], ["blocks.5.batchnorm.bias", [1]], ["Z.weight", [4, 4]], ["Z.bias", [4]]], "output_shape": [[25, 4]], "num_parameters": [180, 20, 20, 20, 4500, 25, 25, 25, 2250, 10, 10, 10, 450, 5, 5, 5, 100, 5, 5, 5, 20, 1, 1, 1, 16, 4]}, {"name": "FeatureModel", "id": 140706359327184, "class_name": "FeatureModel(\n  (dnn_layers): ModuleList(\n    (0): Linear(in_features=9, out_features=8, bias=True)\n    (1): ReLU()\n    (2): BatchNorm1d(8, eps=1e-05, momentum=0.1, affine=True, track_running_stats=True)\n    (3): Linear(in_features=8, out_features=8, bias=True)\n    (4): ReLU()\n    (5): BatchNorm1d(8, eps=1e-05, momentum=0.1, affine=True, track_running_stats=True)\n  )\n  (output_layer): Linear(in_features=8, out_features=4, bias=True)\n)", "parameters": [["dnn_layers.0.weight", [8, 9]], ["dnn_layers.0.bias", [8]], ["dnn_layers.2.weight", [8]], ["dnn_layers.2.bias", [8]], ["dnn_layers.3.weight", [8, 8]], ["dnn_layers.3.bias", [8]], ["dnn_layers.5.weight", [8]], ["dnn_layers.5.bias", [8]], ["output_layer.weight", [4, 8]], ["output_layer.bias", [4]]], "output_shape": [[25, 4]], "num_parame
…
